best_model.pth (torch, 30265 bytes, 5 tensors)

0.weight f4 [100, 16]
000000 91 bb bc 3b 0e 46 ac bd 4d de 45 be 62 94 fc 3d
       0.0057596643 -0.08411799 -0.19323082 0.12332989
000010 47 71 30 bc eb 6d dd 3d aa 36 75 3d 17 67 ae 3d
       -0.010769195 0.10811981 0.059866585 0.085157566
000020 98 16 e5 bd 0b 74 89 3e de c0 0a be bb 27 8d 3e
       -0.1118595 0.26846346 -0.13550135 0.27569374
000030 be 69 8b be dc 10 fc 3d 45 37 b2 be a8 d0 c9 3e
       -0.27229112 0.12307903 -0.34807792 0.39417005
000040 39 c4 cb 3d 15 06 20 3c a6 d1 14 be e2 ea a2 bd
       0.09949536 0.009767075 -0.145331 -0.079549566
000050 3e d8 15 3e 91 f0 27 3c ab 23 25 be 6e 0d 81 3e
       0.14633271 0.010250227 -0.16126888 0.2520556
000060 b6 ea 91 bc 65 e7 bd 3e 42 cb 15 be 7f e2 99 bb
       -0.017812114 0.37090603 -0.14628318 -0.00469619
000070 77 b9 14 3f 2c 8d 2f bb 0a 38 0f be 70 4b 62 3f
       0.58095497 -0.0026787026 -0.13986221 0.8839636
000080 ba b1 92 3e 0a 45 a8 bc 54 76 1a be 12 73 8a bd
       0.2865122 -0.020540733 -0.15084201 -0.06760229
000090 10 a2 2f 3e dd 4a ea 3d 0c c1 fa bc 79 29 24 be
       0.17151666 0.1144006 -0.03060963 -0.16031446
0000a0 48 c7 0f 3c ac 0f 9f 3c 1d 29 b5 3d 15 7c e3 3d
       0.00877554 0.019416653 0.08845732 0.11107651
0000b0 b8 7d f3 3d 0b 4a 36 3d 83 67 2e 3d 62 73 8d 3c
       0.11889213 0.044504207 0.042579185 0.017266933
0000c0 79 e5 da 3c cf 6c 0b bb 66 c0 95 3e 70 bc 83 3d
       0.02672075 -0.0021274572 0.2924835 0.06432426
0000d0 63 52 7a 3e 2c ad e9 bd 00 5c b5 be f9 90 39 3e
       0.2444549 -0.11409983 -0.35421753 0.18121709
0000e0 52 a3 07 bf 09 13 b3 be 73 19 0e be 79 d1 9b 3e
       -0.5298358 -0.3497546 -0.13876896 0.30433252
0000f0 69 4c ab be b7 ee f0 bd bd 44 c0 bd 66 d1 cf be
       -0.33456734 -0.11764281 -0.09388111 -0.40589446
000100 17 52 6c be 35 0d 48 3e 96 65 90 3e 11 38 aa be
       -0.2307819 0.19536288 0.28202504 -0.332459
000110 ca b3 83 3d 30 bb 86 bd b0 b4 87 be 99 00 16 3e
       0.064307764 -0.06578672 -0.2650504 0.14648665
000120 19 44 0a 3e 95 c2 76 be 13 0a b0 bd a8 75 31 3d
       0.1350254 -0.24097665 -0.085956715 0.043325096
000130 d4 cc 85 be fa 20 0b be 1b 53 07 be 4c 51 d7 be
       -0.26132834 -0.13586798 -0.13215296 -0.42054212
000140 9b ce cb 3b 47 e3 1f 3d 1c eb 36 be 3a d7 b5 be
       0.0062196977 0.039035108 -0.17863125 -0.35515767
000150 76 a2 86 bb 39 c5 07 3e f5 0a 60 bd bd 09 92 bd
       -0.0041087223 0.13258828 -0.05469795 -0.07130764
000160 c7 47 7c bb 18 c6 b8 3d c0 39 a8 3d 4b 69 18 3e
       -0.003849493 0.090221584 0.0821414 0.14883916
000170 2e 9f 27 3e 4a 32 36 3d 06 d4 45 be 19 19 85 bc
       0.16369316 0.044481553 -0.19319162 -0.016247319
000180 9d db 51 3e cb a3 a3 3e fa 29 8f 3e de 40 1f be
       0.20493932 0.31960902 0.27961713 -0.15552089
000190 5f da 6e be 8c c1 26 bf ee 5a 6b 3e 53 7b ff be
       -0.2332549 -0.6513908 0.22983906 -0.49898776
0001a0 bb 17 fe 3d 8f 11 a6 bd 1e 66 a0 bc 13 1a 63 be
       0.1240687 -0.08108818 -0.019579943 -0.22177915
0001b0 e2 75 0f bf 12 1f 50 be 2c 1a 05 be 78 fb 5f be
       -0.5603925 -0.20324352 -0.12998265 -0.21873271
0001c0 8e c2 a5 bb 73 e2 c4 3d fc 57 38 3d d7 91 1d bd
       -0.005058593 0.09613504 0.045005783 -0.03846916
0001d0 f3 ac e1 3d 73 ed 82 3e 0e 3c 0c 3e 59 ce 24 bd
       0.110193156 0.25571784 0.13694784 -0.04023585
0001e0 60 38 eb 3d a5 1f 08 bd bc c4 89 bc 7d 58 03 3d
       0.11485362 -0.033233304 -0.016817443 0.03206681
0001f0 7b 02 fa 3e e9 df 54 be d4 45 bb be 56 2d 88 3f
       0.48830017 -0.2078854 -0.36576712 1.0638835
000200 63 9a 16 3e 3b 71 7a bd ea 91 97 bd bc cc 14 be
       0.14707331 -0.06114314 -0.07400878 -0.14531225
000210 82 37 da be 4e 01 29 3e 35 a1 27 be fb cd 57 be
       -0.42620474 0.16504404 -0.1637009 -0.21074669
000220 ef bc 7e be af 2d bd 3e 01 eb f4 3c f2 ef 60 3d
       -0.2487676 0.36948916 0.029897215 0.05491633
000230 f7 e5 c2 be b1 67 4b be 5c d6 f8 bd af f7 08 3f
       -0.38066074 -0.19863774 -0.12150261 0.53502935
000240 8d c5 ac be a7 b9 b1 be 46 56 32 3e 93 71 f1 3d
       -0.3374447 -0.34711954 0.17415723 0.11789241
000250 c4 b3 a7 3b e7 52 ad be 68 d7 85 3e e4 2e a1 be
       0.0051178653 -0.33852312 0.26140904 -0.31481087
000260 45 fa c8 3d aa 62 d9 3a 50 3f 29 be 56 e3 a0 bd
       0.0981336 0.001658519 -0.16528058 -0.07855861
000270 c1 9a 5c be be 75 8e 3c fa 64 9f be 4f 3e af be
       -0.21543409 0.017390128 -0.31131727 -0.34227225
000280 0c e9 0e 3d 50 43 aa bd f6 cf 14 3f 17 d4 79 3d
       0.03489022 -0.0831362 0.58129823 0.06099328
000290 06 f4 9f 3d 62 45 05 bd 1f e0 5c bd 60 47 0c 3d
       0.07810216 -0.03253687 -0.053924676 0.034247756
0002a0 5c c1 d1 3c d7 7e 22 3e b9 ea bb bd ca 77 19 3c
       0.025604896 0.15868698 -0.09175629 0.009366939
0002b0 6b 68 c2 be c5 af ef bc d6 39 cf bd 14 1a 3d bf
       -0.3797029 -0.029258618 -0.10118453 -0.7386792
0002c0 1d 4b fb bc ba 69 4e 3e d0 44 59 be fd 2d b1 bd
       -0.030675465 0.20157519 -0.21217656 -0.0865135
0002d0 09 2b 79 bd 5e e6 97 3d 5e 57 8c be 50 0b 5a be
       -0.060832057 0.07416986 -0.27410406 -0.21293378
0002e0 95 2e 84 3e 39 56 c1 3e 8d 29 90 3d 09 07 80 3e
       0.2581679 0.37761095 0.07039175 0.25005367
0002f0 ea c6 68 3e e9 e3 1a bd ad 6c bb bd 9d 29 26 3e
       0.2273213 -0.03781501 -0.09151588 0.16226812
000300 06 d5 7a be 42 4c 10 bf e7 e9 b0 3b 56 9c 43 3e
       -0.24495324 -0.5636636 0.005398977 0.19102606
000310 91 3e 3a be f5 20 58 be 4a e6 90 3e 33 13 76 be
       -0.1818793 -0.21106322 0.28300697 -0.24030761
000320 44 e4 2b be bb 11 32 be 35 e9 42 be 02 f6 38 be
       -0.16786295 -0.17389576 -0.19034274 -0.18062595
000330 05 df 18 be 98 b4 16 be 08 ea b8 be 2d 75 bb be
       -0.14928825 -0.14717329 -0.36116052 -0.36612836
000340 82 e1 1f 3e 57 52 99 3d 10 34 7d 3e 23 10 33 3e
       0.15613368 0.07486408 0.24726892 0.17486624
000350 89 92 6e 3e 17 c4 54 bd f4 f7 8f be 22 6c 1c 3e
       0.23298086 -0.05194482 -0.2811886 0.15275624
000360 38 cd c6 be 4a 63 c5 be f7 87 23 bd b7 48 8e 3e
       -0.38828444 -0.38552314 -0.039924588 0.27789852
000370 89 61 8d be 40 45 66 be bd 3c 26 be 88 4d 5d be
       -0.27613476 -0.22487354 -0.16234107 -0.21611607
000380 59 0f 00 3e 38 63 90 3b 44 28 4d be ea 3a 2b 3d
       0.12505855 0.004406359 -0.20034891 0.04180423
000390 2a f3 4d 3d 25 d6 8c 3d 09 12 cb bd a8 63 22 3e
       0.050280727 0.06876782 -0.09915549 0.15858328
0003a0 fc e0 0d 3e 58 77 57 3e 9b b5 39 be 82 74 b8 3c
       0.13855356 0.2104162 -0.18135683 0.022516493
0003b0 f0 9a f2 3e 7d dc 17 be 95 7b 28 be f1 39 29 3f
       0.47383833 -0.14830203 -0.16453393 0.66104037
0003c0 44 8f ff 3d 6a 06 28 3d aa 0f b5 bd 21 9f 06 bd
       0.124784976 0.041021742 -0.08840878 -0.0328666
0003d0 08 28 ef bd d4 af 3f be 1c b1 0d 3d fd fb 20 3e
       -0.11677557 -0.18719417 0.034592733 0.15721126
0003e0 8a 4b f0 3d 4f b0 53 3e 5a 46 45 be b3 a8 05 3e
       0.11733158 0.20672725 -0.19265118 0.13052635
0003f0 d2 f8 bd 3e 5f 56 1b 3d 53 3e 4d be cf 16 2c 3f
       0.37103897 0.037924167 -0.20043306 0.67222303

0.bias f4 [100]
000000 16 30 9f 3d 14 c4 8a bc 27 d7 d1 3d 45 6f 5f be
       0.077728435 -0.0169392 0.10246115 -0.2181979
000010 2e 85 3b be b5 2b 29 3e 2d 3e 2b be 3d 4d 10 3d
       -0.18312523 0.16520579 -0.16722937 0.03522991
000020 a9 16 4a 3e ad 0d 42 bd f2 fe a1 be cc ad 8d bc
       0.19735207 -0.047376323 -0.3163982 -0.017294787
000030 5d 29 a6 bd 2c 97 73 bc 9b 8a 12 3e 99 16 02 3e
       -0.08113358 -0.014867585 0.14310686 0.12703933
000040 06 ec 9d 3d dc fa ab bd 7c 52 e1 bd dd 9e 60 be
       0.077110335 -0.08397457 -0.11002061 -0.21935602
000050 dd 96 0f bb 34 b6 d0 3d 27 8c 0a be f7 60 60 3e
       -0.002190999 0.101910025 -0.13530026 0.21911989
000060 15 4d ba be 90 f3 b1 bd 2e 2f d8 bd 31 ee bb be
       -0.36386934 -0.08689034 -0.10555874 -0.36705163
000070 9d 2d 67 be b5 41 cd bd 2f 8c f7 bd 1f ed 45 bd
       -0.22575994 -0.10022298 -0.12087285 -0.04832184
000080 d8 13 49 3e 98 14 22 be 73 93 4d 3d c3 e2 c8 3d
       0.19636476 -0.15828168 0.050189447 0.09808876
000090 d7 8e 0c 3e de 59 15 3e 22 65 d5 3d d1 c1 fb bb
       0.13726364 0.14585063 0.1041968 -0.007683017
0000a0 21 c1 a8 3d 4e df a1 be 48 45 05 be e1 b7 73 3e
       0.082399614 -0.3161568 -0.1301471 0.23800613
0000b0 2a d6 e6 be 53 ef 1b 3e 36 26 5e 3e b6 42 b1 bc
       -0.4508527 0.15228014 0.21694264 -0.021638256
0000c0 59 e3 9a be 95 72 fc 3d 4e 1b 9b be e2 4f 68 be
       -0.30251577 0.12326542 -0.3029427 -0.22686723
0000d0 58 a1 15 be 8d ed b8 be 68 a7 2e 3e da b6 19 be
       -0.14612329 -0.36118737 0.17056048 -0.15011159
0000e0 ee 23 69 3d df bf f3 be 59 f8 81 be 47 98 3e bc
       0.05691903 -0.47607324 -0.25384787 -0.011632985
0000f0 ce 8d f2 3d 03 ca a8 bd 1d 09 84 3d f8 82 1a 3e
       0.11843453 -0.08241656 0.06447051 0.15089023
000100 ca 2c e8 bd 94 b0 b5 be 85 c3 c1 3d 3f 9e 03 3e
       -0.11336668 -0.3548628 0.094611205 0.12853335
000110 dc 38 b8 be 0d ce 8a be d1 ed 70 bc 65 29 8f 3e
       -0.3598088 -0.2711033 -0.014705137 0.2796127
000120 6d 01 93 be 24 9a 6e 3e 86 09 cb 3d 99 b5 f2 3d
       -0.28712025 0.23300987 0.09913926 0.11851043
000130 9b 67 73 3c 6b 92 81 bc b1 8f 1f be 61 17 75 be
       0.014856244 -0.015816888 -0.15582158 -0.239347
000140 47 e9 ca bd 06 de 69 bd 4d 0b 50 3e 8e 51 38 3d
       -0.09907775 -0.057096504 0.20316811 0.04499965
000150 2b fd da 3b 39 9f 04 3e 4a 0b 01 be ef ae 3e be
       0.006683012 0.12951364 -0.12601963 -0.1862142
000160 ee 4e 4b bd a5 15 62 3d 07 86 42 be 36 97 01 be
       -0.04963582 0.055196423 -0.1899644 -0.12655339
000170 8e 91 62 be 31 59 cf bc 88 32 8a be 15 17 8a bd
       -0.22125837 -0.025311084 -0.26991677 -0.06742684
000180 b4 3e 08 3d 4e ae 26 3a 1d cd 19 be f3 78 0d be
       0.033262923 0.0006358371 -0.15019651 -0.1381567

3.weight f4 [50, 100]
000000 aa 01 b4 3d 42 1b d8 bc e3 da 69 bd 51 1e e7 bd
       0.0878938 -0.026380185 -0.057093512 -0.11285079
000010 db 0f 98 bd 68 81 be 3c ea 04 fd bd 8c 9c 0d 3e
       -0.07424899 0.023255065 -0.12354453 0.13829249
000020 e4 e7 94 3d f8 94 15 be 6d 49 87 be 57 9d 9b 3d
       0.07270792 -0.14607608 -0.26423207 0.075983696
000030 2b f3 86 be 06 2d 91 bd 82 de 24 3d 2c 86 c3 3d
       -0.26357397 -0.07088666 0.040251262 0.09547076
000040 70 dd f7 bc d4 49 1e be 4c de e6 3d d8 74 e0 bd
       -0.030256957 -0.1545785 0.112728685 -0.10959786
000050 b4 d5 c7 3d d9 76 25 3d 46 a9 9e be d9 60 43 bd
       0.097575575 0.040396545 -0.3098852 -0.047699783
000060 e1 8f 1e be e0 e7 7c be e2 53 f2 bc 1a ae c7 be
       -0.15484573 -0.24697828 -0.029581014 -0.39000016
000070 46 fe 71 bd 13 2b 82 3e 86 bb 12 be d5 50 c2 be
       -0.059080385 0.25423488 -0.14329347 -0.37952295
000080 70 05 42 3d 38 1d b7 bc a8 29 cf 3d a4 61 4b 3d
       0.047368467 -0.0223528 0.10115367 0.049653664
000090 65 14 2f 3d 23 40 0e 3b ab 14 de 3d 13 b1 6d bd
       0.04274406 0.002170571 0.10843786 -0.0580302
0000a0 11 2e 22 3d 65 77 98 bd 5d 43 45 3c fa 9c ce 3d
       0.039594714 -0.07444648 0.012039986 0.10088535
0000b0 08 8b 57 be f9 e2 b2 3d 10 d0 99 3d aa 1e 53 3e
       -0.2104913 0.08734698 0.07510388 0.20617166
0000c0 26 9e 09 bd 82 05 93 3b 57 87 f4 bd 44 36 18 be
       -0.033598088 0.0044867406 -0.119398765 -0.1486445
0000d0 a0 59 2b be d4 ae 65 be b4 19 56 bd 34 36 b0 be
       -0.16733408 -0.22429973 -0.052270606 -0.34416354
0000e0 48 42 10 3c 31 d7 07 bf 97 9e ad 3d a1 52 38 3c
       0.008804865 -0.5306273 0.08477514 0.011250169
0000f0 92 a6 41 3b b8 38 0f be cf fe 16 3d 99 42 a7 3e
       0.0029548747 -0.1398648 0.0368641 0.32667997
000100 bd 43 99 3d ec 52 97 bd 48 62 e4 3c 6d a1 24 3e
       0.07483623 -0.07388863 0.027878895 0.16077204
000110 0e 60 ff 3c f7 64 64 3b a4 dd e2 3c 20 d7 7d 3d
       0.031173732 0.0034850219 0.027693577 0.061972737
000120 2b f9 d1 be 7c 90 84 3c d8 25 80 3e 34 b6 fb bb
       -0.41010413 0.016182177 0.25028872 -0.0076816324
000130 5e d4 39 3e 15 23 ab bc 59 21 5f be 6f 2b 1e 3e
       0.18147418 -0.020890752 -0.21790065 0.15446256
000140 17 62 e4 bc 64 9b 93 be 9c 15 e9 bc 08 d5 9b 3d
       -0.027878804 -0.2882949 -0.028452687 0.07608992
000150 19 c9 63 3d 81 bb 8f 3d 2d 2a 5e be c1 d5 e8 bd
       0.055611704 0.070181854 -0.21695776 -0.11368895
000160 3c 25 34 3e d2 4d a8 bd 9c 77 88 bd 0a ca 6b bd
       0.17592329 -0.08217968 -0.06663439 -0.057565726
000170 3d c0 f2 3d 7b bc 95 3e 24 3d 2c 3e 72 10 05 3d
       0.11853073 0.29245362 0.16820198 0.032486387
000180 ba 09 c5 3d 67 e0 6c 3e 4c 3a 5b 3e 3c 06 cf 3d
       0.09620996 0.23132478 0.21408957 0.10108611
000190 a3 a8 77 3d 97 a7 5a 3e bc 71 19 be e1 9e 90 bd
       0.06046356 0.21352993 -0.14984792 -0.07061554
0001a0 fb 01 1c be 3c 21 cc bd 92 72 8c be d0 82 29 3e
       -0.1523513 -0.099672765 -0.2743116 0.16553807
0001b0 92 a4 b1 bd b9 01 81 bd 05 1a d7 be c9 43 7a 3d
       -0.086739674 -0.06299157 -0.4201204 0.0610998
0001c0 da 9a e0 be 3b 57 16 be 62 eb ae 3d 1a 7e 83 3d
       -0.43868142 -0.14681713 0.085409895 0.06420536
0001d0 30 d4 fd 3c b8 d5 67 bc 53 e9 23 3c 31 2a a7 be
       0.030984968 -0.014150076 0.010004359 -0.32649377
0001e0 16 ea ed 3c 27 a8 33 bd 70 9f 7b be 4d 76 19 bd
       0.029042285 -0.043861534 -0.2457254 -0.037466336
0001f0 ac f6 e6 3d b2 f6 4d be 61 85 2d be 22 3b 8d be
       0.11277518 -0.20113638 -0.16945411 -0.27584177
000200 0c 33 61 bc e5 c2 2b 3e 60 46 e2 bd 03 08 b0 be
       -0.013745081 0.16773565 -0.11048579 -0.34381112
000210 a6 eb b1 bd 14 18 12 be 60 22 3f bc 66 a9 9d be
       -0.086875245 -0.14266998 -0.0116659105 -0.30793303
000220 3a ad 20 3d b2 3a 12 bd a0 1d 77 3e 5e a9 32 be
       0.0392277 -0.035700507 0.24132395 -0.17447421
000230 9d 34 74 bd da 8d 62 3d b8 26 ea bc f5 73 e4 3c
       -0.05962049 0.05531106 -0.028582916 0.027887324
000240 09 e6 6d be a4 37 62 3d 1a cd f6 3b b4 2d 8f 3e
       -0.23232283 0.055228844 0.007531774 0.27964556
000250 ae 2d 43 bc 6c 6b 01 bd 91 97 7a be a9 50 27 be
       -0.011912746 -0.031596586 -0.2447188 -0.16339363
000260 12 e2 e3 bd 95 71 56 be 35 db 40 3c d5 d6 b9 be
       -0.11127104 -0.20941766 0.011771013 -0.36296716
000270 67 f6 63 3d d7 88 08 bf 3f 9c d7 be 02 2c dc 3d
       0.05565491 -0.533338 -0.42111394 0.10750581
000280 f4 a8 22 3d ee 9b 09 be 66 37 ff 3d ab 91 57 3e
       0.039711908 -0.13438389 0.12461738 0.21051662
000290 71 c3 db bc f6 ea 54 3c 8e 62 27 3e 20 57 0a 3e
       -0.026826592 0.012995472 0.1634619 0.13509798
0002a0 52 dd 6a bd e4 da e0 3d d0 a5 45 3e 07 8d 97 bd
       -0.057339974 0.1097925 0.19301534 -0.07399946
0002b0 d6 4f fa be 35 4b 2a 3d 85 b0 9c 3d f7 2d 92 bd
       -0.48889035 0.04157563 0.07650856 -0.07137673
0002c0 93 47 20 bd 86 7d ad 3d ab e1 b0 be f4 4c 2e 3e
       -0.03913076 0.08471207 -0.3454717 0.17021543
0002d0 be ac 9a 3d 26 c8 10 bd e0 19 8c bb 2a 1c 73 bc
       0.07552479 -0.035347126 -0.0042755455 -0.014838258
0002e0 6a 6a da bc 05 a7 67 bd ae 86 18 be 9b bd ab be
       -0.02666207 -0.056555767 -0.14895126 -0.33543095
0002f0 c0 ce bb 3d 92 a7 72 3d 89 48 c6 bd 1e f5 52 be
       0.09170294 0.05924184 -0.09681804 -0.20601317
000300 45 0c 54 be d7 d2 a0 3e 3e 41 f6 3c 49 f7 41 bd
       -0.20707805 0.31410858 0.030060407 -0.04735497
000310 b2 93 f4 3d ce 06 bb 3e d1 f8 90 3d b8 ff a0 3d
       0.11942233 0.3652863 0.07078708 0.078612745
000320 6e fd a9 3d 83 27 c5 bd bf 14 b8 3b 5a 30 be 3d
       0.08300291 -0.09626677 0.0056177075 0.09286566
000330 6d 87 89 3d 18 72 c6 3c 46 b9 5a be 3c ba c3 bd
       0.067152835 0.024224326 -0.21359739 -0.09557006
000340 42 44 84 be e6 8b 60 3d c0 83 12 bd 9d 3d 40 3d
       -0.25833327 0.054820918 -0.035770178 0.04693376
000350 23 7a 32 3e 46 b3 24 bd f8 bf dc 3d 89 37 c1 3b
       0.17429404 -0.04021003 0.10778803 0.005896513
000360 1f 20 f2 bd 48 58 e3 ba 50 7c 02 3e 5a a5 f8 3e
       -0.11822533 -0.0017345035 0.12742734 0.48563653
000370 30 15 1d 3d ef 75 02 bf e4 61 58 bc cb 05 60 bd
       0.038350284 -0.509612 -0.013206933 -0.054693025
000380 ef 1a cb 3d ed 96 10 3d a2 5e 63 3e c2 d2 b0 3d
       0.099172466 0.035300184 0.22204068 0.08633949
000390 ea bd c3 bd ff e8 5b 3e 26 6e bd bd 84 d1 b7 bc
       -0.095577076 0.214756 -0.09249525 -0.022438772
0003a0 37 d6 88 bc f9 60 41 3e 44 33 db bd 0f df c6 3d
       -0.016703708 0.18884648 -0.107031375 0.09710514
0003b0 cc 14 cf be 61 cb 1d 3c e4 9c 9d 3d dc f4 a0 3e
       -0.40445554 0.009631009 0.0769594 0.31436813
0003c0 4d 73 1a be c4 05 ad 3d de bf 9e be 37 7c 2b be
       -0.15083046 0.08448365 -0.31005758 -0.16746603
0003d0 38 27 4b 3f d7 08 91 bd 73 0a cf be da 2b 9a 3d
       0.7935672 -0.07081764 -0.4043766 0.07527895
0003e0 31 ba bf bc 5f 09 5e be f3 20 bc 3e 7d 4e fe 3e
       -0.023404213 -0.21683262 0.36743888 0.49669257
0003f0 be 5c d3 bc da e4 a7 3e 36 f8 38 3d 4a cd 04 3e
       -0.025801059 0.32791787 0.045158587 0.12968937

3.bias f4 [50]
000000 96 3f 4e 3e 8a 0f 22 3e 90 ef 97 3c 5a df ea 3d
       0.20141444 0.1582624 0.01854685 0.11468382
000010 50 8f 98 3d 30 66 d1 3d 14 7d 3b 3d 1d f6 01 3e
       0.0744921 0.10224569 0.04577358 0.12691541
000020 1a c9 7a 3e 43 96 42 bc 13 f2 24 bd 10 45 bf 3d
       0.24490777 -0.0118766455 -0.040269922 0.093393445
000030 09 3c 31 3e 95 bb 8c bd 33 a7 3e 3c de 5f 21 3e
       0.17308058 -0.06871716 0.011636543 0.15759227
000040 23 6a 27 3e 70 d9 8e 3c 45 53 f7 3d 7c 54 4b 3e
       0.16349082 0.017437667 0.12076429 0.19856447
000050 64 21 85 3e 2f 29 04 3e f9 b7 65 3d 08 cf 7a 3e
       0.26002038 0.12906335 0.056083653 0.24493039
000060 72 3f 1b 3d 5a 8b f5 3d 5e d7 27 3e 12 33 15 3e
       0.037902303 0.1198947 0.1639075 0.14570263
000070 21 8c e8 bd 80 33 46 3e 51 1a dc 3d be 6f b5 3d
       -0.113548525 0.19355583 0.10747207 0.08859204
000080 e1 a5 19 3d d4 02 eb 3d 7a 1a 7c 3d 79 93 b3 bc
       0.03751171 0.11475149 0.061548688 -0.021920906
000090 80 17 22 3c 26 8e b9 3d 50 b3 47 3e 7e 4c f3 3d
       0.009893298 0.09060316 0.19501996 0.11879824
0000a0 25 a2 7b 3a c2 c9 00 3e 5a 38 7f 3c 6a 22 5f 3d
       0.00095990516 0.12576964 0.0155774 0.05447618
0000b0 e4 13 bb 3d b0 da 1a 3e c7 27 09 be 1f 47 2f 3e
       0.09134653 0.15122485 -0.1339408 0.17116974
0000c0 35 66 2d 3d 72 46 3f 3d
       0.0423338 0.04669804

6.weight f4 [1, 50]
000000 ee 92 08 be 6c ea 63 be 6c 56 32 3f 95 04 bb bd
       -0.13337299 -0.22257394 0.6966312 -0.09131733
000010 3b 7a 5e 3e 55 22 f8 3e 0a 70 3b 3e 59 79 0d be
       0.21726315 0.48463693 0.18304458 -0.13815822
000020 79 88 a3 be b6 f2 06 3e 8c fe 72 3f 71 ee 93 3e
       -0.31940058 0.13178524 0.9491966 0.28892854
000030 e6 5d 0e be c9 01 08 bf a9 2c a7 3e 98 70 d8 bd
       -0.13903007 -0.53127724 0.3265126 -0.105683506
000040 ae d2 99 be b1 80 3b 3f f5 f7 eb bd ee 9e 14 be
       -0.30043548 0.7324324 -0.115219034 -0.14513752
000050 cc f0 82 be 48 53 15 be a2 0a 8f 3e 46 d9 f1 bd
       -0.25574338 -0.1458255 0.279378 -0.1180902
000060 9d 59 89 3e 0d e7 82 3f f9 09 16 be c4 ec fc bd
       0.26826182 1.0226761 -0.14652242 -0.12349847
000070 1d c8 17 3e 13 94 87 be ee 74 38 3e 8e 74 a6 be
       0.14822431 -0.2648016 0.18013355 -0.325108
000080 d5 15 53 3f 6d 44 6b be 40 cf 4d 3f b1 45 16 3a
       0.8245519 -0.22975321 0.80394363 0.0005732431
000090 58 b7 a8 3e a9 36 14 3f b8 4e 63 be 5e fb da bd
       0.3295238 0.57895905 -0.22197998 -0.10692476
0000a0 35 8f d9 3e 9d 94 01 be 27 33 6c 3f 7e 83 c8 3e
       0.4249207 -0.12654348 0.9226555 0.3916282
0000b0 d4 c1 89 3e c0 6d 68 be 31 6b a6 3e 02 cc b9 bd
       0.26905692 -0.22698116 0.32503656 -0.090721145
0000c0 f8 b3 d8 3e 38 c5 84 3f
       0.42324805 1.0372686
