best_model.pth (torch, 30265 bytes, 5 tensors)

0.weight f4 [100, 16]
000000 6d 9e bf 3d 16 37 b9 3c 73 d9 8f be af 77 81 be
       0.09356389 0.022609275 -0.28095588 -0.25286624
000010 11 92 c4 3d 42 bc d5 3d 89 76 2d bd 92 56 b2 3d
       0.095981725 0.10436298 -0.042349372 0.08707918
000020 95 c3 8a 3d ee d2 d7 3b fc 7b be 3d cd 3b cd 3c
       0.067755856 0.006586424 0.09300992 0.02505293
000030 9e e2 ca bd ab ab 07 3e 1a 10 52 3d c3 08 83 3d
       -0.09906505 0.1324908 0.051284887 0.063981555
000040 7a a6 5b 3d 19 51 b9 3c c4 e9 5e bd e5 ec d9 bd
       0.05362556 0.022621678 -0.054422155 -0.10640887
000050 40 b5 25 3e 5a 36 1b 3d 81 0d ea 3d ac 0f 7a 3e
       0.16182423 0.03789363 0.11428357 0.24420041
000060 b1 7e 7f 3e ed 55 19 3e 36 0a 23 be 59 c2 28 3d
       0.24950673 0.14974184 -0.15921864 0.04120097
000070 06 b6 f1 3e 71 21 87 3c a1 27 75 be 1e 6c 1f 3f
       0.47209185 0.016495438 -0.23940898 0.6227435
000080 06 be 26 be a1 39 39 bd 6e a2 99 3e 97 81 cf 3c
       -0.16283426 -0.045220975 0.30006737 0.025330348
000090 48 4e c4 bd 73 dc 82 be 47 24 bd bd e9 79 71 bd
       -0.095852435 -0.25558814 -0.09235435 -0.058954153
0000a0 7e 16 ac bd 35 bc a4 be 97 ab 8d bd 48 cd 62 3d
       -0.084027275 -0.3217484 -0.06917494 0.055371553
0000b0 0a 51 0d be 74 de 6e 3d 53 cf 0b be 62 e6 19 be
       -0.13800445 0.058317617 -0.13653307 -0.1502929
0000c0 6a 7d ac 3d 1c 25 df 3c 36 6c 90 3e bf 4b 1a 3c
       0.08422358 0.027239375 0.28207558 0.009417473
0000d0 29 37 4c 3e 7b 55 97 be 4a 69 bf be f9 cb 3a 3e
       0.19942917 -0.29557404 -0.37385017 0.18241872
0000e0 f8 b4 fc be c1 28 06 3d 6c 75 de bc f1 b5 5f be
       -0.49356818 0.03275371 -0.0271556 -0.21846749
0000f0 d6 a6 0a be 64 0b af 3d 20 a1 44 bd bb d0 3c be
       -0.13540205 0.085470945 -0.048005223 -0.18439
000100 50 03 59 3e ec de c1 3d 0f 49 79 be 68 73 2d be
       0.2119267 0.09466347 -0.24344276 -0.16938555
000110 30 37 f5 3c cc 37 05 be fb a4 62 bd c1 e2 f3 bd
       0.029933542 -0.13009566 -0.05533312 -0.11908484
000120 b6 e8 65 3e 8a e6 20 3d 91 3e 5c bd 36 d1 85 bd
       0.22452053 0.03928236 -0.053770605 -0.065340444
000130 f4 76 00 3e ee c1 d1 bd 58 40 07 3e 01 3a 7e bc
       0.12545377 -0.10242067 0.13208139 -0.015516759
000140 ed de 3c 3e 26 70 a1 bd a6 59 62 be d0 b6 3c be
       0.18444414 -0.07882719 -0.2210451 -0.18429112
000150 fa 8d d0 bd 9a 39 6a 3e e7 a5 31 be de 49 1b 3e
       -0.1018333 0.22873536 -0.17348443 0.15164897
000160 75 75 28 3e 1a 9d a8 3c 5a 9f 28 bd c8 f3 31 3e
       0.16451056 0.020582724 -0.041167594 0.17378151
000170 9f 49 27 3e 62 11 3e 3e 2b 5e 1c be df a9 56 3e
       0.16336678 0.18561319 -0.15270297 0.20963238
000180 e6 88 e7 bd bd 55 3d 3e 52 bd 4c bd 22 cd da bb
       -0.11305408 0.18489738 -0.049985237 -0.006677286
000190 48 21 45 be 46 1f d9 bd b4 8f 20 3e fa a8 bf bd
       -0.19250977 -0.10601668 0.15679818 -0.093584016
0001a0 48 fa db 3d ee 00 9e be e2 72 cd 3c a0 b4 94 3d
       0.10741097 -0.30860084 0.025079194 0.07261014
0001b0 8e 8c 3b be 1a 64 e0 bb 60 21 28 3d 62 0e 1b be
       -0.18315336 -0.0068478705 0.041047454 -0.15142205
0001c0 cd ea 5f 3d 41 0f 90 3e c1 52 27 be 88 91 8e be
       0.054667283 0.28136638 -0.16340162 -0.27845407
0001d0 58 d6 9c bd b3 87 3c be 59 00 6a 3e b7 98 5f be
       -0.0765807 -0.1841114 0.22851695 -0.218356
0001e0 dd 72 89 3c 74 f4 b1 bd ab a7 23 be dc 18 ab 3d
       0.016778404 -0.08689204 -0.15981929 0.08354351
0001f0 5b 6a 03 be 30 37 33 3c a6 20 c3 bc ee 0e 67 bd
       -0.1283354 0.010938451 -0.023819279 -0.056410722
000200 d9 eb d1 bc 50 76 03 3c 03 fd 94 3e de 2a 68 3c
       -0.025625156 0.008023813 0.29099283 0.014170377
000210 3a 87 86 3e 3d 84 98 be 87 38 90 be 65 aa 75 3e
       0.26275045 -0.2978839 -0.28168127 0.23990782
000220 f4 70 b6 bd 6d 38 93 be f4 26 a7 bc 14 3d 07 3c
       -0.08908263 -0.28753987 -0.020404316 0.008254308
000230 9e d0 a7 3d ae a4 53 be be 1d b9 be 5d 83 23 be
       0.081940874 -0.20668289 -0.36155504 -0.1596808
000240 1d 06 0e 3c d4 01 b0 3d 9e 56 24 be 20 51 a2 3e
       0.00866845 0.08594099 -0.16048667 0.31702518
000250 f4 4e 3c bd e3 00 53 be bb 86 35 3b 41 45 16 bd
       -0.045973733 -0.20605807 0.0027698714 -0.03668714
000260 4b 9c 17 be 93 45 47 bd 8b 48 45 be 45 7d 1c be
       -0.14805715 -0.048650336 -0.19265954 -0.15282162
000270 2e b7 15 3e 41 fb 31 bf 54 d1 e3 bd 81 d3 cc 3c
       0.14620659 -0.6952401 -0.111239105 0.025003197
000280 6d e9 65 3e 45 60 57 bd 71 19 b0 3e 77 ca d3 3d
       0.22452326 -0.052582044 0.3439441 0.103413515
000290 70 f6 a5 bd d9 90 00 be 74 e9 2d be 11 e3 21 be
       -0.08103645 -0.12555255 -0.16983587 -0.15809275
0002a0 4b 0c 59 3d 1d 24 a3 bd 3a 90 15 be 69 8a 5e 3e
       0.05299024 -0.079658724 -0.146058 0.21732487
0002b0 b9 26 ab be fa f2 e8 bd 67 4f 22 3c 0a 06 02 be
       -0.3342798 -0.11374469 0.009906626 -0.12697616
0002c0 da 17 e6 bc 7b a8 68 bd 50 fe c6 bd 79 3f bf bd
       -0.028087545 -0.0568013 -0.09716475 -0.09338278
0002d0 b4 6e 3e 3e b6 17 31 3e 6b 05 28 be a6 7e 9d 3e
       0.18596917 0.17294201 -0.16408317 0.30760688
0002e0 c5 90 38 be b9 33 95 3e d9 12 09 be 0b 72 3d 3e
       -0.18023975 0.29141024 -0.13386096 0.18500535
0002f0 c1 d8 7b bd 11 f0 72 3e b0 6e 68 be 99 2a 0d 3f
       -0.06148601 0.2372439 -0.22698474 0.55143124
000300 52 08 eb 3c c8 82 86 3d 90 6f 0f be 44 aa 2a be
       0.02869049 0.06567913 -0.14007401 -0.16666514
000310 51 24 3f be 98 99 2e 3e d1 e4 5d 3e bf 9f a5 bc
       -0.18666197 0.17050779 0.21669318 -0.020217774
000320 c8 5d 03 3e be 30 5b 3e 85 5d 81 be 1b 19 7a bd
       0.12828743 0.21405312 -0.25266662 -0.0610591
000330 af fb 51 3e 7f 2b 03 be 0b ee 7d be 65 32 0c 3f
       0.20506166 -0.12809561 -0.24797837 0.54764396
000340 46 e5 df 3d cc a5 c3 be 01 8e f2 3d c5 72 82 3e
       0.10932402 -0.3821243 0.11843491 0.25478187
000350 19 5b 91 bd 7d a8 23 be 51 ea 4a 3c 2b cd b4 be
       -0.070974536 -0.15982242 0.012384967 -0.3531278
000360 a4 b9 88 3d 0b f7 0a be d7 d0 65 be 74 31 46 bb
       0.06676033 -0.13570802 -0.22442947 -0.0030241879
000370 98 53 06 be b7 37 2b 3e a7 3d 3d 3e e8 3c 3d be
       -0.13117826 0.16720472 0.1848055 -0.18480265
000380 c7 fc 96 bd 84 ff c1 bd a4 9d 47 be 68 f1 86 be
       -0.07372432 -0.09472564 -0.19493729 -0.26356053
000390 69 d5 f4 3d f2 64 d0 bd 00 44 9b be 0f ee 8a bc
       0.11954767 -0.10175504 -0.30325317 -0.016959218
0003a0 2e e2 52 bc 50 b5 10 bf 94 b6 18 3e 46 99 ad bc
       -0.012871308 -0.5652666 0.14913398 -0.02119125
0003b0 e0 c2 1b bd 2c c7 5a 3e fc 64 52 be c7 99 52 be
       -0.038027644 0.2136504 -0.20546335 -0.20566474
0003c0 ae d0 29 3e 57 48 a3 bd d6 88 03 bd 98 76 7e 3d
       0.16583511 -0.07972782 -0.03211292 0.06212482
0003d0 6f ac 3d be 6b 10 93 3e 63 a8 2d 3e a8 9a ae bd
       -0.1852281 0.28723463 0.16958766 -0.08525592
0003e0 13 3d 0e 3e 45 c8 3e 3e 30 f7 5a 3e 1e 53 69 be
       0.13890485 0.18631084 0.21383357 -0.22785613
0003f0 6c ed a8 bc 76 3c de be 8a f5 90 3d 46 17 9f 3e
       -0.020621024 -0.43405503 0.07078083 0.31072444

0.bias f4 [100]
000000 a3 5b 2b 3d ca fa 53 3e c7 ef e4 3d b7 55 6a be
       0.04183544 0.20701137 0.111785464 -0.2288426
000010 08 7a fd 3d b6 fb 3e 3e d4 2b 73 3d d2 6f 6b be
       0.12376791 0.18650708 0.05936797 -0.22991875
000020 89 bc aa 3d 1f 60 8c be cf ba e5 3d e0 ac eb bd
       0.083367415 -0.27417085 0.112172715 -0.11507583
000030 e8 0a 38 3e ff bf 5d be 47 cb a6 bb f0 4b fb bd
       0.1797291 -0.21655272 -0.0050901505 -0.12270343
000040 8d 7d 93 3d fc 35 93 be 2b 14 38 be 92 6a 51 3d
       0.07201681 -0.28752124 -0.17976443 0.051127024
000050 98 e4 c6 be d5 29 5d bd 33 53 30 3e 0d 04 f5 3d
       -0.38846278 -0.053994972 0.17219238 0.11963663
000060 4d e8 f4 bc c8 60 13 be 95 02 d8 bd 10 93 8e bd
       -0.029895926 -0.14392388 -0.105473675 -0.06961644
000070 83 96 83 be c2 86 d4 3c 0f 78 68 be 26 df 14 3e
       -0.2570077 0.025943164 -0.22702049 0.1453825
000080 e9 64 5b be 67 1d 32 3d b1 7f 94 3e 74 f9 10 3e
       -0.21425213 0.04348507 0.2900367 0.14157659
000090 c5 13 97 be 69 a6 9c be fb df 92 3e 1f 04 5c 3d
       -0.2950727 -0.3059571 0.2868651 0.053714868
0000a0 f3 80 6e 3e bb 1a 9a bd 52 b4 1c 3d 36 30 5d 3e
       0.23291378 -0.0752463 0.038257904 0.21600422
0000b0 2e 95 18 3e 23 51 cb be fc be 1d 3b e1 63 db bd
       0.14900658 -0.3971034 0.0024070134 -0.1071241
0000c0 27 e0 6a 3e a5 14 3b be 07 12 13 bd 46 a1 89 be
       0.2293707 -0.18269594 -0.035905864 -0.26880854
0000d0 a2 13 dd bd 74 bf 21 be d9 1d 7b be 53 a1 0d 3e
       -0.1079476 -0.1579569 -0.24523105 0.13831072
0000e0 7e 44 99 be 4b f0 95 be 88 1a 18 be ef 38 68 be
       -0.29935068 -0.2928489 -0.14853871 -0.22677968
0000f0 34 7f 9b be 8b 5a 75 be ae 89 66 be 98 73 1b bd
       -0.30370486 -0.2396032 -0.22513458 -0.037952036
000100 b0 e1 44 be 88 ab f1 3d a5 fa 57 be 2a 06 ae be
       -0.19226718 0.11800295 -0.21091707 -0.33989078
000110 f0 20 69 be 3f 0d 58 3d bd 95 6e bd 83 00 2a be
       -0.22766471 0.052747007 -0.05824827 -0.16601758
000120 6a 0e 9c bd 4b 6c b8 be 2e f5 38 3d 0d 56 a4 bd
       -0.07619937 -0.3602012 0.045155697 -0.080242254
000130 28 02 9c be 8a 3a bb be 5d 50 9a bd d7 b8 ac be
       -0.30470395 -0.365681 -0.07534859 -0.33734772
000140 c7 bc 8f be 83 49 89 3e e0 59 d5 bd 96 c4 73 3e
       -0.28073713 0.26813897 -0.10417533 0.2380546
000150 0a f2 10 3e ce 02 93 be ce d4 17 be 63 7e 7c 3d
       0.1415483 -0.28713077 -0.14827272 0.06164397
000160 1e cb 6c 3e 02 69 ad bd 8f a0 16 3e 3d 56 67 bd
       0.23124358 -0.08467294 0.14709686 -0.056478728
000170 02 d2 d0 bd 8c 81 b0 be 28 f4 15 be 44 79 d8 bd
       -0.10196306 -0.34473836 -0.1464392 -0.105700046
000180 ea 47 ab 3d 1b a1 33 3d bf 60 6b 3c dc b8 23 3e
       0.08363326 0.043854814 0.014366328 0.15988487

3.weight f4 [50, 100]
000000 ff c1 7f bc 71 59 0c bc a3 ed c9 3c 00 24 53 3e
       -0.015610217 -0.008566246 0.024649447 0.20619202
000010 e9 2d b5 3c 90 68 ab bd e9 39 7c bd 0c 7d f2 bc
       0.022116618 -0.08369553 -0.061578665 -0.029600643
000020 12 5c a4 3e 52 0e 96 be b7 db 12 bd 1f c9 c9 bd
       0.32101494 -0.293078 -0.035854068 -0.09852814
000030 a0 a5 55 bd 04 55 d6 3a 37 db ab bd fc c0 0a be
       -0.052159905 0.0016352241 -0.08391421 -0.1355018
000040 68 b6 7f 3d b4 f4 23 3e cf 35 c8 3d 5d c8 b0 3d
       0.062429816 0.16011316 0.09775888 0.08631966
000050 6a bd d1 3e b5 5b fe bd 82 fe 20 3d 49 f2 c0 bd
       0.40964824 -0.124198355 0.039305218 -0.09421212
000060 a8 cf 31 be d7 a2 a4 3d da e1 45 3d 4e 4f 98 be
       -0.17364371 0.08038872 0.048311092 -0.29748005
000070 2f 6c 13 3e 57 c0 51 3d 5f 2f cc bd fd 1d 5b be
       0.14396738 0.05120882 -0.09969973 -0.21398158
000080 88 e5 7e bd d7 72 bc 3d 0e 0d ff 3c b1 dc 8c bd
       -0.062230617 0.092015915 0.031134155 -0.06878031
000090 54 2c 15 3e e2 02 01 3e 73 bc 27 be a6 60 ff 3d
       0.14567691 0.12598756 -0.16380481 0.12469606
0000a0 e9 30 70 bd b8 e3 03 3e 47 11 8c 3d 26 b8 ad be
       -0.058640394 0.12879837 0.06839233 -0.33929557
0000b0 d9 53 89 3c 4e fa 10 3f d1 44 f2 3d f4 89 9d 3d
       0.016763614 0.56631935 0.11829532 0.07692328
0000c0 10 c5 5b bd 8e 16 8a 3e 94 9f d4 3b 79 64 2e 3d
       -0.05365473 0.26970333 0.0064887498 0.042576287
0000d0 07 19 18 be 8e 03 e9 b7 75 26 de 3d 31 e0 24 3d
       -0.14853297 -2.777742e-05 0.10847179 0.040252868
0000e0 08 18 9f 3e 58 7e 04 3e 60 d6 7c bd 31 35 f5 bd
       0.31073022 0.12938821 -0.06172788 -0.11973036
0000f0 ef 10 c3 3e 5b 03 e8 3d c7 dd 76 3d 88 02 78 3d
       0.38098857 0.11328765 0.060270097 0.06054929
000100 11 1e 2b bd 57 0d ae 3d f4 9b 0a 3d 3c 7c 1f 3e
       -0.04177672 0.08498638 0.033840135 0.15574735
000110 3d ae 31 3e 1f 20 71 be 65 2e 9f bd 53 36 8d bd
       0.17351623 -0.2354741 -0.07772521 -0.06895127
000120 27 86 c3 3d fb e1 89 3e 77 fd 83 bd 8d b6 6b be
       0.09547072 0.26930222 -0.06444829 -0.23018856
000130 3b 52 8c 3e 26 a9 17 3e 75 b8 0e 3f 69 06 a1 3e
       0.27406487 0.14810619 0.5575021 0.31450203
000140 2b cf b6 3d a9 d7 29 be 17 f3 9f be 3a 46 6e 3d
       0.08926233 -0.16586174 -0.3124015 0.058172442
000150 e9 96 bd bb d5 b1 3a 3e 7c fd 82 be cc eb b2 3d
       -0.005785812 0.182319 -0.25584018 0.08736381
000160 c4 16 ef bd 07 3f c2 3d fa 01 0b bb ef c0 5b 3d
       -0.11674264 0.09484678 -0.0021210895 0.053650793
000170 b4 cb 47 be b0 3d 08 3d dc 31 f6 3d 78 72 89 bd
       -0.195113 0.033261955 0.12021229 -0.06711286
000180 d5 69 c1 bd f0 6c dc 3c 6f c5 70 ba 9e b1 1c 3e
       -0.09444014 0.026907414 -0.00091846933 0.1530213
000190 69 51 0d bd 4d ee 3a bd cc c0 63 3d 7c 9d 2a 3e
       -0.034501467 -0.045637418 0.055603787 0.16661638
0001a0 7c 51 e8 bd 9d 4e 8d 3d 2c b6 0a 3d 50 a1 dd bd
       -0.11343667 0.0689976 0.03386514 -0.108217835
0001b0 2c 62 cc 3d a0 a7 fc bd fd db ca 3d ea 12 26 bd
       0.09979662 -0.123366594 0.09905241 -0.04054538
0001c0 fe 0c 90 bb 39 f8 86 3e 77 24 f0 ba 2d fd 82 be
       -0.00439608 0.26361254 -0.0018321414 -0.25583783
0001d0 51 34 9c 3d 92 18 1f 3d b9 ce 35 3e 2a 12 87 bc
       0.07627166 0.03884179 0.1775464 -0.016488153
0001e0 20 bc 8c 3e 20 0d 3b bd 68 cb 41 bc 08 d1 02 be
       0.27487278 -0.045666814 -0.011828281 -0.12775052
0001f0 67 ec df bd d5 32 cd 3d 80 86 37 3e ad 91 82 bd
       -0.10933762 0.10019461 0.17922401 -0.06375442
000200 ca a5 86 3e c7 21 62 bb 5f 70 2b 3e c4 42 68 be
       0.26298362 -0.0034504996 0.16742085 -0.22681719
000210 57 45 52 bd 92 c5 8c 3d 6b c1 35 bd 95 97 00 be
       -0.05133566 0.06873621 -0.04437391 -0.12557824
000220 6c 52 6d 3d e9 6d 89 3e 9e fd cf bd eb e6 f9 bc
       0.05793993 0.26841667 -0.101557955 -0.030505618
000230 de ce 47 3d 8d e1 79 bd cb b6 e6 3b 6e 53 9d bd
       0.04878127 -0.061006118 0.0070408336 -0.076819286
000240 ad 0a 40 3d f5 ed 13 3f 57 16 6d 3d 01 8c ff bc
       0.04688518 0.5778497 0.057882633 -0.031194689
000250 44 6c 2f bd 8e 8f 3f 3e 5a 76 53 3d 99 7a 10 3c
       -0.04282786 0.18707106 0.05162654 0.008818292
000260 7b 83 b4 bd 99 39 d2 3d 8b dc b6 3c ff f2 76 bd
       -0.088141404 0.10264892 0.02232196 -0.060290333
000270 2a 9a c7 3e 22 fe 29 3e 3c ff 43 3d 34 d5 a9 3d
       0.38984805 0.1660085 0.047850832 0.082926184
000280 af ad c2 3e 6d 7c db 3d d7 a5 04 3e b3 47 2d 3d
       0.38023135 0.10717092 0.12953888 0.042304706
000290 ae a8 45 3d bd f5 3a 3c 8f b2 8f 3d 14 2d 52 3e
       0.04825657 0.011411128 0.07016479 0.20525008
0002a0 06 f9 12 3e a9 06 f5 bd eb c0 5f bd c2 3e 70 bb
       0.14352807 -0.11964161 -0.05462734 -0.00366585
0002b0 ef 0f 12 bc be 23 83 3e 37 29 22 3d 55 55 e7 ba
       -0.008914932 0.25613207 0.039590087 -0.0017649332
0002c0 02 45 c1 3e fe d7 8b 3e 24 4a 22 3f b9 0b 93 3e
       0.3774796 0.27313226 0.6339438 0.2871988
0002d0 fc 2a 3b 3d 2c da 2c ba 58 cc 91 be d6 bb 00 bd
       0.04569529 -0.00065937894 -0.28476214 -0.031429134
0002e0 76 9b a0 3d d9 d6 84 3e 41 90 67 be 64 b2 9e 3d
       0.07842152 0.25945166 -0.22613622 0.07748869
0002f0 bc b1 e4 3b 6e bb d1 bd 9b 52 6e bd 66 ba d2 3d
       0.0069791954 -0.102408275 -0.058184247 0.10289459
000300 95 e7 38 be e2 9e a3 bd cd 0d 2e 3e c0 2f 24 3d
       -0.18057092 -0.07989289 0.16997452 0.0400846
000310 13 13 a0 3d 0d 5e d4 bb a6 a8 ae 3c b0 2e 05 bd
       0.07816138 -0.0064809383 0.021320652 -0.032515228
000320 bf 43 ec 3b 8f 34 ca 3d f0 e4 cd bd 7b d8 03 be
       0.0072102244 0.09873306 -0.10053432 -0.1287555
000330 fe 2b d3 3c 33 b6 f6 bc 6b fb 45 3d dc d7 80 bd
       0.025777813 -0.030116176 0.048335474 -0.06291172
000340 30 19 1b bd 57 cb d6 3c 5d b2 29 bd 21 1f 31 3d
       -0.037865818 0.026220007 -0.041429866 0.043242577
000350 90 be 33 ba 05 bf 9f bd 32 8f ad 3c ca 9c 4f 3c
       -0.0006856704 -0.07800106 0.021186445 0.012671659
000360 41 1a a5 bd 57 29 cc bd e6 99 50 bd 5d b4 7e 3c
       -0.08061648 -0.099688224 -0.05092802 0.015545932
000370 f4 cc 4b be a3 e0 fd 3c 55 bd cd 3d 36 37 4e 3e
       -0.19902402 0.030990904 0.10045878 0.20138249
000380 3a 36 73 3d e6 2f 87 3d 01 8a a5 bd a6 c3 03 3d
       0.059377886 0.06600933 -0.08082963 0.032169007
000390 e9 94 af bd 87 02 97 ba 9d 56 af bd 8e e4 9f 3e
       -0.08573324 -0.0011521139 -0.08561442 0.3122906
0003a0 d9 7b 42 3e 56 6c bb 3b 6e 6a dd 3d b0 ba 0a bc
       0.18992557 0.0057197018 0.108113155 -0.008467361
0003b0 31 76 d2 bd ee 68 5b bd 79 cc 33 3e ad 62 cc 3c
       -0.102764495 -0.053566866 0.17558469 0.024949396
0003c0 30 64 31 3d a5 6b 2b bd ea 66 72 3d 08 3e bf 3d
       0.043308437 -0.041850705 0.059180178 0.093380034
0003d0 70 d1 70 3d 6f f6 c8 be 88 c0 e8 bc 8b 59 ce 3d
       0.058793485 -0.39250514 -0.028412119 0.10075673
0003e0 81 ef 9b bd 07 46 de bd 37 85 eb 3c 31 45 c2 bd
       -0.07614041 -0.108532004 0.028750045 -0.094858535
0003f0 f6 fc 88 3d f8 07 cc bd 07 f3 8b bc fa 9b 99 3c
       0.066888735 -0.099624574 -0.017083658 0.018751133

3.bias f4 [50]
000000 2e 6a c6 bd ae 9d 52 3d 88 28 5c 3e 0d 5a 37 3e
       -0.09688221 0.051419906 0.21499836 0.17905445
000010 bd a9 ba 3c 88 ab f2 3d 25 69 48 3e dd a7 54 3b
       0.022786016 0.11849123 0.1957136 0.0032448687
000020 63 dd 68 3d 00 09 f0 bd 14 a4 09 3e ff 43 e8 3d
       0.056851756 -0.117204666 0.13441497 0.11341094
000030 9f ce a3 3d e3 24 a5 3c b7 32 aa 3d 73 b8 bf bd
       0.07998394 0.02015919 0.08310454 -0.09361353
000040 6e 9f 21 3d 06 bf 3a 3e eb ae c6 3d 2d 64 03 3e
       0.039458685 0.18236932 0.09701332 0.12831183
000050 49 22 a2 3d fb b1 47 bd 33 79 1d 3d 93 80 5d 3d
       0.079166956 -0.04875372 0.038445663 0.054077696
000060 b3 4d 13 bd 7b 31 68 3d 42 ad 34 3e d5 69 cb bd
       -0.03596277 0.056687813 0.17644218 -0.09932295
000070 21 7b 69 bc 04 e2 bb 3d 81 89 55 3d 4e 24 f6 bd
       -0.014250548 0.091739684 0.052133087 -0.12018643
000080 2d ae 1b 3e 03 d7 46 3e 40 7a f1 3d db 4e bd 3d
       0.15203162 0.19417958 0.117908955 0.09243556
000090 45 84 52 3b 74 60 10 3e 76 bf 78 39 25 7f 1f 3e
       0.0032122296 0.14099294 0.00023722448 0.15575846
0000a0 e4 c7 64 3e 0d ee 9b 3d 99 a4 e9 bd 81 49 2c bd
       0.22341877 0.07613764 -0.11408348 -0.042062286
0000b0 07 3e 02 3d a9 44 46 bd 07 b5 73 bc d2 72 04 3e
       0.031797435 -0.048405323 -0.014874703 0.12934425
0000c0 9f d1 17 3e 60 1e fb 3d
       0.14826058 0.12261653

6.weight f4 [1, 50]
000000 45 31 da 3e 09 00 7a 3e 4b 4d 4a be 7e 6d e0 bd
       0.42615715 0.24414076 -0.19756047 -0.10958384
000010 d2 1a 3d 3f a9 a3 bf bd 4b c4 04 be 16 5f a8 3e
       0.7386905 -0.093573876 -0.12965505 0.32885045
000020 7a 80 e5 be 3c 6d bd 3e af 6d 06 be 02 e8 07 be
       -0.44824582 0.36997402 -0.13127778 -0.13272098
000030 6c 72 3d be a7 82 fc 3e ab ab 02 be ce b3 2d 3f
       -0.1850068 0.4931843 -0.12760799 0.67852485
000040 34 1b 73 be b7 be 05 be e6 55 91 be c0 c8 25 be
       -0.23740846 -0.13061033 -0.28385848 -0.16189861
000050 0e 81 4c be cf 7c 8c be 73 3a 9b bd 00 8b d3 3e
       -0.19971105 -0.2743897 -0.07579508 0.41316986
000060 6d 78 d5 3c 43 d2 a2 bd 41 0d 2f be 5d 1b d0 3e
       0.0260584 -0.079502605 -0.170949 0.40645877
000070 d3 73 89 3e 66 ed 51 be 2a 8e f8 bd d0 78 e8 3e
       0.2684618 -0.20500717 -0.12136491 0.45404673
000080 7a c0 31 be 22 87 c5 bd f3 6e 27 be 77 2a 9c bd
       -0.1735858 -0.09644915 -0.16350918 -0.07625287
000090 99 77 aa 3e 37 5a 54 be 63 f0 c4 3e ae 8b f6 bd
       0.3329437 -0.20737539 0.3846465 -0.120383605
0000a0 96 8c 8d be b9 60 7c be 5d 24 de be 68 ce 80 3e
       -0.2764632 -0.24646272 -0.43387118 0.25157475
0000b0 9e 29 9e 3e 95 f0 a0 3e 8a 4a a2 be ad 53 10 be
       0.30891126 0.3143355 -0.31697494 -0.1409442
0000c0 d7 2e 05 be 10 f8 24 be
       -0.13006149 -0.16110253
